converted_model.tflite (tflite, 544544 bytes, 7 tensors)

movielens_model_1/ranking_model_3/sequential_10/embedding_7/embedding_lookup f4 [1665, 32]
00000000: e624 80bc 0285 b53c 8931 053d 338b d4bc
00000010: 588f 19bc 40c7 113a 8dde a5bc 723d 9c3c
00000020: 00c0 8ebb a268 af3c 734d 2f3d 4aca 0abd
00000030: 7aa6 9dbc 2ddd ecbc 80e5 47bd e802 31bc
00000040: f31f 483d fac7 8ebc 7d89 03bd 3919 2d3d
00000050: 5d2b 363d 5dba 273d 204e 81bc 00f9 e7bc
00000060: 21ea 273d facf b1bc 0d93 ecbc 5a77 8ebc
00000070: 8231 dd3c 30c4 b8bb 3959 2a3d d0c8 d9bb
00000080: 7a6e 0f3d 588d 643b bf38 2fbd bd41 093c
00000090: 9f73 903c d373 d13c 16b4 17bd 8135 0f3c
000000a0: 033e 21bd ec05 193d 6ac5 053c 1e84 2b3d
000000b0: 1518 2b3d 3251 af3c ad2b 0c3d 53a6 213b
000000c0: ed68 30bc 0d7b 2ebd adea 453d adac 1a3d
000000d0: 1827 d6bb 7d1e 143d 1d03 f7bb 3058 1bbc
000000e0: 5c34 683b 0f08 2f3c 6809 133d fcfe 40bd
000000f0: 72c2 cebc 3f8c 2e3d 21be 393d 17b0 333d
00000100: e332 2abd 7b4c 2e3c 1028 cabc caed 273d
00000110: 3327 063d 93e6 5c3c 85a1 083c f364 013d
00000120: a8e2 55bb 5179 9ebb 05f4 04bc f8f6 fabc
00000130: 8624 debc 2239 0a3d 8bfe b43c fd7b c8bc
00000140: 1d27 adbc 1ab4 2bbd 0399 253d 886e cabc
00000150: 8152 40bd fe68 82bc bbab a53b d9ae c33b
00000160: 8056 edbc 0642 d0b9 31ff aebc 8574 45bd
00000170: bf42 223d 77d9 1dbc 3fb8 3fbd 5581 323d
00000180: bcc8 d03c 75a9 6d3b e0a7 d63c 9b4c d73a
00000190: 5292 3b3d eb55 49bd 00c2 d8ba d077 193d
000001a0: b646 bbbc 7b8e 863c e1d2 783c 226a b0bc
000001b0: 591f 413d 6c37 54bd 01be 273d 2f34 0bbd
000001c0: eb9b ccbc 7574 88bc 42bb 2ebd 501c 44bc
000001d0: 3a83 75bc d193 553c 9d4b 98bc 66d4 2cbd
000001e0: 2b64 ac3c 2b2a cdbc ab0f 8e3c 582c 2abd
000001f0: c34e 553d aabd 2bbd 1b34 8c3c cb7a 363d
00000200: 7cce bcbc bbf2 80bb a86f b8bc a337 bc3b
00000210: 247c d4bb c4e7 b33c 42a7 f5bc d6e8 023d
00000220: 758e 2ebd bc7a c4bb a942 7cb9 e1c0 50bd
00000230: 0cca 143c 4859 8dbc ba3d 1abc 9680 0c3d
00000240: 6017 ebbc 6db9 40bd b77d c13c eb68 123d
00000250: f73a 2f3d d2d6 01bc b17a 473d 5183 bcbb
00000260: e977 d43c ce92 1bbd 4d1a 4e3b 512f 4c3c
00000270: 34b7 443c 13b8 26bd 57ff 373d 81dd 40bc
00000280: acec 083d 423d 1dbb 986b 1e3d fec7 a1bc
00000290: 0358 2a3d 94c6 b53c dbbe e33b ec6e dc3c
000002a0: 526e a23a 2aac 833c f7b3 0abd b1c2 ffbc
000002b0: 4cbf b73c df1b 56bb b88b ddbc 0cc1 253d
000002c0: 0e7c 183d 472f 473d 0c9f 243d 5a79 3b3d
000002d0: 684a ecbc f719 a5bc 0a3a 1a3d 063b 2c3d
000002e0: 5073 87bc 78cc 3bbd 88ac 1bbc a196 12bd
000002f0: 111b 903c 5f6d 393c 143c 213d d417 21bd
00000300: 443b 453d 1407 143d cc25 163d 1c17 90bc
00000310: 431f 253d d533 04bc 3441 12bc 99f4 263d
00000320: 4a9c 25bd 8ec4 453d dac1 3a3c 4b10 73bc
00000330: e094 f33c 3f10 2a3d e8b7 37bd bead 0abd
00000340: 6c6e 493d 2262 b73c ec71 103c ab55 3d3c
00000350: 6c80 1cbd 5eed 12bd e12d 843c 2aff 07bd
00000360: 4681 233d 04b4 0c3d 93d3 183c 860e 7bbc
00000370: a9c0 39bd 6498 0ebd 084a e2bc 8204 223c
00000380: abe2 3ebd 5bcb 59bc ff32 2b3d 054d 743c
00000390: 9157 5c3c df28 1fbd bdb3 03bd 97e1 29bd
000003a0: c4eb 3e3d 0029 2b3d d18a 313c 57dc 813c
000003b0: 6138 953c b9ae 983c d26e 11bd 5366 67bc
000003c0: 3096 333d 3935 3dbd 427b 573b a045 fdbc
000003d0: c846 a83c 0571 0abd 747d 20bc 8f99 073b
000003e0: bc85 debc ebf4 293d 9211 5abc 0806 643c
000003f0: fa7f 7a3c 09ff 04bd 560d 033d a152 17bb
-0.015642595 0.02215815 0.032517944 -0.025945282 -0.009372555 0.00055610016 -0.020247722 0.019072268
-0.0043563843 0.021412198 0.04279847 -0.033884324 -0.019244421 -0.028914059 -0.048802853 -0.010803916
0.048858594 -0.01742934 -0.03211354 0.042260382 0.04447495 0.040949214 -0.015784323 -0.028316975
0.040994767 -0.021705616 -0.028878713 -0.017390896 0.027001146 -0.0056386217 0.041588996 -0.006646253
0.035017468 0.0034874287 -0.042778727 0.00837749 0.017633257 0.025567925 -0.037036978 0.008740784
-0.03936578 0.037359163 0.008164743 0.041874044 0.041771013 0.021401022 0.03422134 0.0024665787
-0.010767204 -0.04259782 0.048319507 0.037762333 -0.006535422 0.03616189 -0.007538213 -0.009481475
0.00354316 0.010683074 0.035897642 -0.047118172 -0.025239203 0.042614218 0.045347337 0.043869104
-0.041552436 0.010638352 -0.024677306 0.040998258 0.032752227 0.013482708 0.0083392905 0.031590413
-0.0032636318 -0.0048362394 -0.008114819 -0.030635342 -0.027117025 0.033745892 0.022094032 -0.024473185
-0.021136815 -0.041919805 0.040429126 -0.024710909 -0.04695368 -0.015919205 0.0050558723 0.005971771
-0.02897191 -0.00039722043 -0.02136192 -0.048206825 0.039614435 -0.009634367 -0.04680657 0.043580372
0.025486343 0.0036264334 0.026203096 0.0016426028 0.04579384 -0.049154203 -0.0016537309 0.037467778
-0.022860866 0.016425362 0.015186996 -0.021534983 0.047149036 -0.051810667 0.040952686 -0.033985313
-0.024976691 -0.016657094 -0.04265905 -0.011969641 -0.0149849 0.01303573 -0.018590743 -0.042194746
0.021043858 -0.025044521 0.017341455 -0.041546196 0.052077066 -0.041928925 0.01711469 0.0445507
-0.023047678 -0.0039351857 -0.02251418 0.005743937 -0.0064845253 0.0219611 -0.029986981 0.03196033
-0.042616326 -0.0059960764 -0.00024057426 -0.050965194 0.009081375 -0.017254487 -0.009414131 0.034302317
-0.02869767 -0.047051836 0.023619516 0.03574459 0.042780843 -0.007924752 0.048700992 -0.005752959
0.025936084 -0.0379818 0.0031448782 0.012462453 0.01200657 -0.04070289 0.044921245 -0.011771561
0.033428833 -0.0023992811 0.03867683 -0.019748684 0.04158784 0.022189416 0.006950242 0.02690836
0.0012392497 0.016073305 -0.033863034 -0.031220766 0.022430085 -0.003267042 -0.027044162 0.040467307
0.037227683 0.04862907 0.04019074 0.045770027 -0.028844073 -0.020153983 0.037653007 0.042048477
-0.016534477 -0.045849293 -0.009501584 -0.035788182 0.017591031 0.01131758 0.039363936 -0.039329365
0.048152223 0.036139563 0.03665714 -0.017589144 0.040313017 -0.008068998 -0.008926678 0.04076061
-0.040432252 0.048283152 0.011398757 -0.0148354275 0.029734075 0.0415194 -0.04485312 -0.0338571
0.049177572 0.02238566 0.008816224 0.011556069 -0.03820841 -0.035870902 0.016135158 -0.033202328
0.039918207 0.034351364 0.009327787 -0.015323287 -0.04534975 -0.0348133 -0.027623191 0.00988877
-0.046602886 -0.013293113 0.04179668 0.014910941 0.013448612 -0.038857337 -0.032153834 -0.041474905
0.046611562 0.041787148 0.010836319 0.015852137 0.01821536 0.018638002 -0.035506077 -0.014123517
0.0438444 -0.046193335 0.0032879864 -0.030916989 0.020541564 -0.03379919 -0.009795535 0.0020690893
-0.027163379 0.041493338 -0.013309853 0.013917454 0.015289301 -0.032469783 0.03199514 -0.0023090022

movielens_model_1/ranking_model_3/sequential_11/dense_10/BiasAdd/ReadVariableOp f4 [64]
00000000: 6b03 9ebd 98e5 2d3e d09d b1bd f768 18bc
00000010: 7495 523e ddf8 463e cee2 c6bd e164 c9bd
00000020: 2605 473c 4666 55bd 36d7 533e 4a27 2e3e
00000030: 21ad 653e b012 bcbd f147 51bd 0db6 523e
00000040: 632c 64bd 6837 133e 9ce0 bfbd 4052 abbd
00000050: abd2 6a3e facc 90bd 0c99 c6bd ba1a 5b3e
00000060: 89c2 98bd 9de9 423e 8fa7 c8bd aecd b5bd
00000070: 77e0 383d b813 36ba c648 c7bd 780e 5d3e
00000080: d4e8 c8bd 8aa3 5f3e 7f1e 63bd 665a 413e
00000090: e223 c3bd 4351 5d3e 32da a5bd 762d 9bbd
000000a0: b555 c7bd cb52 6a3c 693a c5bd 1eae b1bd
000000b0: ec03 87bd 85be 5a3e da67 273e e52b 5c3e
000000c0: aaea 5b3e 24d2 b7bd d964 e8bc e34a b8bd
000000d0: 0457 c9bb 87c8 673e 4fa7 b5bd 568c 5d3e
000000e0: c3a3 c1bd 2237 b3bd 0fba 643e 6466 563e
000000f0: a2b6 3fbd 451a 5d3e 0bf0 92bd 5bf7 c9bd
-0.07715496 0.16982114 -0.086726785 -0.009302369 0.20564824 0.19430871 -0.09711228 -0.09833694
0.012147224 -0.05209949 0.20687565 0.17007175 0.22429325 -0.09183252 -0.051094 0.2057726
-0.055706393 0.14376605 -0.09369013 -0.08365297 0.22931926 -0.07070346 -0.0969716 0.21396914
-0.0745898 0.19034429 -0.09797584 -0.08877121 0.04513594 -0.00069456873 -0.09730677 0.2158755
-0.098100334 0.21839729 -0.055449005 0.1888214 -0.095283285 0.2161303 -0.08098258 -0.0757703
-0.09733144 0.014301966 -0.096302815 -0.08675788 -0.06592545 0.2136174 0.1634821 0.2150112
0.21476236 -0.08975628 -0.0283684 -0.089986585 -0.0061444063 0.22635089 -0.08869802 0.21635565
-0.09455063 -0.0875075 0.223366 0.20937496 -0.04680503 0.21592052 -0.07174691 -0.098616324

movielens_model_1/ranking_model_3/sequential_11/dense_9/BiasAdd/ReadVariableOp f4 [256]
00000000: c9b7 adbd aa86 97bd 0bde ce3d 1620 94bd
00000010: e902 67bc 8e05 5fbd f13f bbbd f6bc af3d
00000020: b0d3 bd3d 439c 82bd 10a3 c8bc 5bb3 a3bd
00000030: 5794 95bc 970c 43bd 74a5 2fbd 77d0 0ebd
00000040: c467 47bb b5d6 fbbc 2727 f23d 43c1 08bc
00000050: c8fd b9ba 42e6 5abc db4c 42bd 5148 b0bd
00000060: 2dad 51bc 7247 b5bd 42cb 423c cd1f 26bd
00000070: d57b 53bd ea77 853b fad1 2bbd 9113 87bd
00000080: ee2c fdbc db48 32bd 4665 a43d 06d0 ddbc
00000090: 9917 2f3e 6e81 133c b727 3bbd 44fa abbd
000000a0: f09e 08bd 07fc 1f3e 8b83 92bd 79b1 a0bd
000000b0: 4f0c b23c 900c 393e c0c1 fabc 0b46 8ebd
000000c0: f120 bb3c 918d 06bd eedb 56bd 7283 aebd
000000d0: 7002 11bc 7357 673d 86b8 8cbd 2d4b e8bc
000000e0: 7ab7 7dbb 77dd a2bc be21 1fbc d5e0 6ebc
000000f0: 2c64 8f3c b8e9 ee3d 5687 0cbb 1ebc 87bd
00000100: 5f5e 68bd c420 14bd 747d 80bd 9e85 65bd
00000110: 35be 2bbd 37c0 aebd 9b25 1cbd 181c 81ba
00000120: a7b1 0a3e 793d 18bd 8d3d bcbc 0fd0 b1bd
00000130: b5ad 88bc 9343 b93d 14cf 503d f32d 083d
00000140: 425d 863b 2d69 063e bbc2 da3c cc6e c23d
00000150: 18a0 09bd 8229 933b 8fba 97bd d675 a6bd
00000160: 7a95 5dbc 6d9d 263d 490f d43d 1916 dc3d
00000170: 222d 49bd ef8c f53d 0e2f 1f3e 0fd7 983d
00000180: 9dec 23bd a2fa c83c a3f6 213e a6b3 17ba
00000190: 77d8 3abc d2a1 fe3d a684 80bd d498 6fbd
000001a0: 3401 5c3c dcbd 2ebd ed8f a5bd 5e3b e13c
000001b0: 0c0f babc 1b93 9dbb 8351 a63d 0875 91bd
000001c0: 61e4 8bbc fdd4 68bd 3a74 d23d 39f9 8ebd
000001d0: 4acb 22bd 6f19 813a c249 fe3d 65c1 9bbd
000001e0: 531a 23bd c2cf 373d 22ef e03d ed20 61bd
000001f0: c546 a1bd 948f 80bd 8a01 90bd 2213 bc3d
00000200: 5d8e cf3c 1a10 153e 5c49 b73d c231 0bbd
00000210: 6e67 f23d 1a70 afbc 3f1d 80bd bb4d 3e3d
00000220: cfaa cabc 8cd8 36bd e7b4 a7bd 6d00 0e3d
00000230: 992e dcbc 2553 3b3e ad77 5f3c 889c e3bc
00000240: 1dbf 10bd 8bc8 96bd 4f52 0cbd 23ba 0f3d
00000250: f8a8 e2bc d69b 40bd 4e5a 94bd 1152 94bd
00000260: 685d b8bd 1a84 09bd f11e 613d 2d71 91bc
00000270: 783a 5bbd a83d a8bd a6b9 733d 1b2a 3fbd
00000280: f9f0 ed3d 133c 5e3d 71a4 21bd e6c4 3ebd
00000290: 9e90 903c c61a 82bc 9524 ff3d 0027 8a3d
000002a0: 1127 233e 5f73 dd3d be33 41bd ce82 033d
000002b0: 7658 9ebd 1b7d 94bd cb24 1e3e b35e b5bc
000002c0: 6edf f13d 629a cdbc 4eb4 b9bc f6cc 81bd
000002d0: bd15 ac3d 145f 26bc 1182 33bd 9de0 15bc
000002e0: d471 86bc 09a0 c2bc 4371 4ebd 47a7 86bd
000002f0: d584 37bd bd88 83bd c0b4 0f3e 5e83 c4bc
00000300: 4427 cfbc 2fda c03d 00d6 55bd 5b64 61bd
00000310: 9441 ad3c 7a9e 7ebd 6581 0c3e 5bc6 213e
00000320: 67b0 80bd a8fe 233e ac0b 9abd 9b60 223e
00000330: d055 a83c 2889 63bd ef98 84bd 3096 a5bc
00000340: 50d4 a2bd 3ffb 4fbd 33ac 6ebc 8af0 cabc
00000350: b95c d13c 0557 86bd 42c0 033d c22f a5bc
00000360: 1dee 1dbd 7174 afbd 50c1 29bd 71be 013e
00000370: bfef e03d cbe5 1fbd a8b0 ecbc 9ab9 7fbd
00000380: 52d7 e43c 409a 023c e3fc 1abc 73b6 9fbd
00000390: 44bc 8abd 307f c03b 9059 313e 7f7c b4bd
000003a0: 7244 b33d 7a69 013e 7ff9 a33d 09dd 31bc
000003b0: 9d22 83bd 2a58 3abd efa2 5ebd d231 5bbd
000003c0: a648 133d 736b 9fbd 4ca7 19bd f7aa 8bbd
000003d0: 41b7 d3bc d867 eb3d c4da 4abd db68 9b3c
000003e0: da5d a7bd 9074 46bd ab6e 9abd de09 b0bd
000003f0: f09a a0bd 4c0a c43d e868 03bd 8df7 85bc
-0.0848232 -0.07398732 0.10100945 -0.072326824 -0.014099815 -0.054448657 -0.09143055 0.08580963
0.09268892 -0.06377461 -0.024491817 -0.07993194 -0.01825921 -0.04761943 -0.042882398 -0.034866776
-0.003042684 -0.030742029 0.11823874 -0.008346858 -0.0014190013 -0.013360562 -0.047436576 -0.08607543
-0.012797636 -0.08851518 0.011889281 -0.04055767 -0.051631767 0.0040731328 -0.041948296 -0.06595529
-0.030905213 -0.04352651 0.08027129 -0.027076732 0.17098846 0.009003026 -0.045692172 -0.08397344
-0.0333547 0.15623485 -0.07153996 -0.0784635 0.021734385 0.18071198 -0.030609965 -0.069469534
0.022842856 -0.032849852 -0.052455835 -0.08521165 -0.008850679 0.056479882 -0.068711326 -0.02835616
-0.0038714097 -0.019880993 -0.009712635 -0.014579971 0.01750382 0.11665672 -0.0021442971 -0.066276774
-0.056730624 -0.03616406 -0.06273928 -0.05603563 -0.041929442 -0.08532756 -0.0381218 -0.0009850292
0.13544331 -0.037168 -0.022978568 -0.08682262 -0.016684392 0.09046092 0.050978735 0.033246946
0.0041004727 0.13126059 0.026704183 0.09493789 -0.033599943 0.004491032 -0.0740863 -0.08127944
-0.0135244075 0.040677477 0.10354478 0.10746402 -0.049115308 0.119897716 0.15545294 0.07462894
-0.040020574 0.024533574 0.1581674 -0.00057869626 -0.011404148 0.124332085 -0.06275301 -0.058495358
0.013428021 -0.042661533 -0.08084092 0.027494129 -0.022712253 -0.004808796 0.08121016 -0.071024
-0.017076673 -0.056843746 0.10276075 -0.06981129 -0.039744653 0.0009849499 0.12416412 -0.076052465
-0.039820027 0.044875868 0.10983111 -0.05496304 -0.07874826 -0.06277385 -0.070315436 0.09183337
0.025336439 0.14556924 0.08949539 -0.033983 0.11836134 -0.021415759 -0.06255578 0.04646085
-0.024739651 -0.04464011 -0.08188801 0.034668375 -0.026877688 0.18293436 0.013639373 -0.0277846
-0.03533851 -0.07362469 -0.034258183 0.035089623 -0.027668461 -0.047023617 -0.07243787 -0.072422154
-0.09002191 -0.033573247 0.05496115 -0.017754162 -0.053522557 -0.08214885 0.05950322 -0.046671014
0.116182275 0.05425651 -0.039463464 -0.046574496 0.017647084 -0.015881907 0.12458149 0.0674572
0.15932871 0.10813021 -0.047168486 0.032107167 -0.07731716 -0.072504245 0.15443723 -0.022139883
0.11810194 -0.02509803 -0.022668984 -0.06337921 0.08402584 -0.010154504 -0.043825213 -0.00914779
-0.0164117 -0.023757951 -0.050400984 -0.06574874 -0.044804413 -0.06422565 0.14033794 -0.023988422
-0.025287278 0.09416615 -0.05220604 -0.055027347 0.021149434 -0.062162854 0.13721235 0.15798323
-0.06283646 0.16015112 -0.075217575 0.15857165 0.020548731 -0.055550724 -0.06474482 -0.020213217
-0.07950652 -0.050776716 -0.014567423 -0.024772901 0.025556909 -0.065595664 0.032165773 -0.020164374
-0.03855716 -0.08567131 -0.041444123 0.12670304 0.10983228 -0.039037507 -0.02889283 -0.062432863
0.027934704 0.007971346 -0.009459707 -0.07798471 -0.0677419 0.005874537 0.17319322 -0.08812808
0.08753289 0.12637892 0.08006572 -0.010855922 -0.06403086 -0.045494236 -0.054354604 -0.05351431
0.035957955 -0.07784166 -0.037513062 -0.06819718 -0.025844218 0.11494416 -0.049525037 0.018970897
-0.08172198 -0.048451006 -0.075406395 -0.08595632 -0.07842052 0.095722765 -0.03208247 -0.016353393

movielens_model_1/ranking_model_3/sequential_9/embedding_6/embedding_lookup f4 [944, 32]
00000000: d3d7 ffbc 5a24 eabc e4d9 6d3c d0e7 c13b
00000010: a248 d43c 0db8 c8bc 3477 063c 60a7 a0bc
00000020: 6691 97bc 00ba 3b3b 26df 82bc 09b0 313d
00000030: 7a5c 48bd 46a8 903c c70e 9cbc fa86 3dbd
00000040: 28a6 333c 1adf d73c 80f2 46bd 74cc 8dbc
00000050: f47e 723c 0753 afbc a8d7 51bc d86a 04bc
00000060: 8048 11bc 7a48 b2bc d606 08bd 1899 7bbc
00000070: 3a24 a23c c05f 00bc 4c5f 02bc 000b dfb9
00000080: 29bd 4a3c e04c d7bc 690e 40bd e6e9 d5bc
00000090: 4dfd 1e3d 7525 f03c 8bb7 ecbc 8562 90bb
000000a0: 0a37 2dbd 8229 39bd 00e5 36bd 9fad e7bb
000000b0: 74a9 5f3c ac88 a9bc ac02 1c3d ee28 183d
000000c0: a13b 1d3d c68a f1bb 2e2d 2d3d 5bfc 7bbb
000000d0: 05c9 00bd 7ab9 e23c b977 0cbd 3808 233d
000000e0: 252d 53bc 5737 a23c b2ed 903c 176e 26bb
000000f0: 8d8a 1b3d 028f 5d3a deee 05bd 43f4 593c
00000100: 6375 cbba f813 6ebc c03d 813b 04da 693d
00000110: 58ff bfbc 306c 98bc 4ce8 82bb 4871 2f3d
00000120: ea55 b73c a409 833c 206c 89bc 9908 72bb
00000130: b338 293d 5df3 723c bcc0 fcbb 53d2 a3bc
00000140: 9744 113d cbcf bdbc 684e 2e3d e0ed 39bd
00000150: 9d6d b93b 7d91 1abc cb96 b23c 00c5 2d3c
00000160: 3225 97bc 98df 043d 7e07 e7ba 1797 17bd
00000170: 12b5 f63c cf4c 3cbd 5acd 573b 242b 393c
00000180: 65d1 7ebc 6d22 4e3d 5260 133d f193 2c3d
00000190: 4848 3d3d a6ef f2bc 9728 e53c 7f4f e73c
000001a0: 0c3c 26bd e203 bdbc 0672 0d3d 152f 0cbd
000001b0: 2e77 113d ff1f 2a3d d58a 9abc 8b1c 22bc
000001c0: d720 473d 9a21 8c3c 4d06 203d 47ec b53c
000001d0: def3 18bd c404 33bd 3854 713c b542 d0bc
000001e0: a571 6dbc b1ef 0abd 340f ad3c 3889 b5bc
000001f0: c0ad cb3c 1f4f b63c 49d0 653c 7182 c0bc
00000200: d51b 333d 44fc dcbc f9a5 313d f0ce 13bd
00000210: 570a d83b 411a 5c3b ac71 04bd f75d 27bd
00000220: c5d4 f1bc 3cd2 a6bc 25a0 03bd cb27 353d
00000230: 0361 263d b4c4 813c d989 d7bc b718 26bc
00000240: b5b4 a3bc 3e5e dcbc cdc3 0cbd e90e 0b3d
00000250: e6e0 803c deca 2d3d 0a63 883c 745c 863b
00000260: 0c2b a2bc 9b12 38bb f2c6 b33c b54c 14bd
00000270: c8ba 723b 917c 83bc 753f 5bbb 5290 79bb
00000280: 1916 dabc 5d5c 483d 9dba acbc 4e75 7cbd
00000290: ccc2 66bc 2ec8 39bc 22ee d03c 7adc 51bb
000002a0: f861 063d f176 e43c b8d6 d9bc 01b8 3b3b
000002b0: 3717 d73b e40a 2abb 0c72 1e3c 07bb 31bd
000002c0: d696 a1bb c652 24bd c3ef 44bd fddb 8e3c
000002d0: 2dbc c43c c62c 3c3c d88b 16bd e6c4 753c
000002e0: e0d5 38bd ee72 a9bb 6151 593c 6bb9 3bbc
000002f0: 3d1c 3abd f3b3 cebb 60c0 47bc 4bc3 843c
00000300: 9f6b b1bb 1412 383d bc14 e03c 8f85 03bd
00000310: e861 f9bc ee7c a5bc de77 ecbc a71e b73c
00000320: d4c4 273d 3bcf 9dbc a524 acbc d711 0bbc
00000330: b01f 27bd fe84 c73c 5a92 69bc a719 cf3c
00000340: 2f88 f5bb daa5 9c3c 7e07 2e3d 8853 633c
00000350: b655 013d 7e10 04bc 771e ab3c 4b25 0c3d
00000360: 7360 373d 5cb6 21bd 49ee fe3c 7e01 b0bb
00000370: 34f2 8cbc cd3d 07bd dc86 08bd e765 21bd
00000380: 645a 1c3d ee41 2f3c 1ad9 d5bc 5c4f 4739
00000390: 9e3c 17bd 42a0 063d a1f8 203c d260 02bd
000003a0: 07e6 3cbc 20cf 1dbb 158a 5a3a 9fff fcbc
000003b0: 7830 993b ffda 043d 8807 2c3d fbf1 46b8
000003c0: 36ea 2e3d 31fb 403d 08ce e6bc 4180 e9bc
000003d0: 0c4b b7bc c04d 683c 9c96 58bc bc72 f63c
000003e0: 248b 0ebd 3fb1 1fbc 4f19 1f3d 7aaa 863b
000003f0: e006 053d ecba 333d de19 903c 7977 f9bc
-0.031230843 -0.028581787 0.014517281 0.005917527 0.02591354 -0.024501825 0.008207131 -0.01961106
-0.018501949 0.00286448 -0.015975546 0.04338077 -0.048916318 0.017658364 -0.019050015 -0.0462713
0.010964908 0.0263515 -0.04857111 -0.017309405 0.014800776 -0.021401895 -0.012807764 -0.008082114
-0.008867383 -0.021763075 -0.033209644 -0.015356325 0.019792665 -0.007835329 -0.007957291 -0.0004254207
0.012374201 -0.026281774 -0.046888743 -0.026112508 0.038815785 0.029314736 -0.028896114 -0.0044062757
-0.042288817 -0.0452056 -0.044651985 -0.007070258 0.013651241 -0.020695053 0.038088486 0.03714841
0.038386945 -0.0073712794 0.042279415 -0.0038449976 -0.031441707 0.027676333 -0.034293864 0.03980276
-0.012889181 0.019801779 0.017691467 -0.0025395209 0.03797393 0.0008451791 -0.032698505 0.013302865
-0.0015522655 -0.014531128 0.0039441288 0.05709268 -0.023437187 -0.018606275 -0.003994977 0.042832643
0.022379834 0.015995808 -0.01677519 -0.0036931394 0.04131384 0.01482853 -0.0077134054 -0.019997751
0.035465803 -0.023170372 0.042555243 -0.04539287 0.005658819 -0.009434101 0.02180042 0.0106060505
-0.018450353 0.032439798 -0.0017626134 -0.037009325 0.030115638 -0.045971688 0.0032928796 0.011301789
-0.015552853 0.0503258 0.03598053 0.042133275 0.04621151 -0.029655289 0.027973456 0.028236149
-0.04058461 -0.02307314 0.03453257 -0.03422459 0.03551405 0.04153442 -0.018865028 -0.0098945005
0.048615303 0.017105866 0.03906851 0.022207392 -0.037341945 -0.043705717 0.014729552 -0.025422433
-0.014492427 -0.033919994 0.021125413 -0.022160158 0.024863124 0.022254525 0.01402671 -0.0234997
0.043727715 -0.026975758 0.043371174 -0.036086023 0.0065930295 0.0033584984 -0.03233497 -0.040861096
-0.029520402 -0.02036392 -0.032135148 0.044227403 0.04061986 0.015840866 -0.026310848 -0.010137728
-0.019983629 -0.026900407 -0.034366418 0.033949766 0.01573224 0.042429797 0.016648788 0.0041003767
-0.019795917 -0.0028087262 0.02194545 -0.036205966 0.00370376 -0.016050609 -0.0033454571 -0.0038080406
-0.026621865 0.04891621 -0.021085078 -0.061635308 -0.014084529 -0.01133923 0.025504176 -0.0032022283
0.032808274 0.027888747 -0.026591644 0.002864361 0.0065640467 -0.0025946433 0.009670746 -0.043391254
-0.004931311 -0.040118 -0.048080217 0.017438883 0.02401551 0.011485284 -0.03675446 0.0150005575
-0.045125842 -0.0051711714 0.013264031 -0.011457781 -0.045437086 -0.0063080727 -0.012191862 0.016206404
-0.0054144408 0.044939116 0.027353637 -0.032109793 -0.030442193 -0.020201173 -0.02886575 0.022353483
0.040959194 -0.019263854 -0.021013567 -0.00848814 -0.040801704 0.024355408 -0.014256084 0.025280787
-0.007493041 0.019122053 0.042487614 0.013874896 0.03157588 -0.008060573 0.02088855 0.034215253
0.044769716 -0.039480552 0.031119483 -0.0053712716 -0.017205335 -0.033017922 -0.033331737 -0.039403822
0.03817214 0.010696871 -0.026104499 0.00019007683 -0.036923043 0.032867678 0.009824903 -0.031830616
-0.011529452 -0.0024079755 0.0008336616 -0.030883608 0.0046749674 0.032435413 0.04199937 -4.743224e-05
0.04270383 0.047114555 -0.028174415 -0.028503539 -0.022374652 0.014178693 -0.013219502 0.030084006
-0.034800664 -0.009746849 0.038842496 0.004109678 0.03247726 0.043879434 0.01759046 -0.030452477

movielens_model_1/ranking_model_3/sequential_11/dense_9/MatMul f4 [256, 64]
00000000: 37bc c83c deb3 c6bb 5cf1 ca3c c9d1 f93c
00000010: e671 e13c edce b03d 3152 293d 07cd 853d
00000020: bf91 a93d 3c1f 09be 4737 f93c 4b40 483b
00000030: 6063 d7bd 3301 8e3d ddd6 0cbd 2281 a73d
00000040: 5726 2bbd 34db db3d 44cb afbc 676c 8c3d
00000050: 6a4c 04be 31f2 d6bd 5409 84bd 854d 39bc
00000060: 65ea 06be a151 30bd a279 debc 72af 9d3d
00000070: 7d7a 69bd 0ee8 8fbc a8e7 263d 0fb8 fa3b
00000080: 4a97 ab3d 4f20 263d 8b34 0b3e 5356 8cbd
00000090: 0bba ecbd d82e 5fbd 7631 ad3d 9220 cc3b
000000a0: c475 bf3d 3be7 a8bd b281 cfbd 8922 48bd
000000b0: a8f6 e23d 3ae1 dfbd e3cd 4fbd f223 05be
000000c0: 1951 0e3d 035e 2dbb 2ab3 633d a1b8 a53c
000000d0: d571 db3d 2aff 063e 2c67 f8bd 7846 6d3c
000000e0: 9cee 063e 3ec7 af3c f039 083e 3ad4 ad3d
000000f0: 6e53 6c3b 48cc 9dbd a199 dfbc 957c aebc
00000100: 982b e2bd 5e22 f93d bfda 633d f66d d03d
00000110: c15e 073d 2f18 18bd 10fc 6ebc 34cd 04bd
00000120: 868a 043e f9a9 e6bd ea14 063d 47bd d2bc
00000130: c31b acbd ce8a da3d d459 01be 6e49 5fbd
00000140: 448e f6bd dada bfbb 7ac4 9d3d 5d39 bc3b
00000150: 2c9a bdba 3bcf ad3d 9c57 89bc 505b dbbd
00000160: c72b 7d3d ba38 51bd 1da8 a43d 1419 03bb
00000170: 863f aabd 97dd 9abd 5dd7 053e f349 afbd
00000180: b505 fabd f44e 053e 382d de3d ae71 093d
00000190: 8f29 b93d 0476 2f3d a810 393d bcd9 3d3d
000001a0: ed31 50bb 1f2a 523d 4416 febd a2f6 02be
000001b0: eb26 8d3c e8bd 33bd c566 bf3a 7ced cc3d
000001c0: 85ae febd 2532 dfbb 8a14 b8bd b23d 433c
000001d0: 9f87 d2bd 6461 6bbd f211 d8bd 50cd 20bd
000001e0: 4c81 593d d2f8 febd 1dd6 99bc bb23 e5bd
000001f0: 3ef2 fcbc 07b3 353d 0f28 6f3d 5fdc 0fbd
00000200: 8ca9 c6bd cf20 00bd 13f1 a3bc 6220 883d
00000210: 7d2f 0d3d e754 a03d ec8c 023e a00a 633d
00000220: 90ec bc3d 7d8a 113e 977f c3bd be94 86bb
00000230: ef82 8fbd 6d6c 94bd 6966 cc3c 712c e63d
00000240: afc8 08be eb65 3a3d fa84 973d fd32 253d
00000250: 2691 75bd 3303 983c 7551 2f3d ad2c 913b
00000260: 9821 153d 5f71 44bd 6d94 e93d 25d6 5f3d
00000270: b674 a73d d5fd 9ebd 1ae8 633d efcb dabd
00000280: 27fd c9bc 4bb3 95bd 90a3 4abd e89f 00be
00000290: b8c6 f93a 2e45 0a3c f944 ea3d c516 3e3d
000002a0: 8956 f4bd 9816 57bd c5a9 1fbd bd70 8a3a
000002b0: 4cdb 3abd ff1f ff3d 7f2c a73d f05a 5fbd
000002c0: a045 87bc de08 fc3d 541c 9ebd 2b37 dbbc
000002d0: 1a07 8d3c 39d3 8abd 8539 e6bd 6f5d 1fbd
000002e0: b514 a83d 4576 073e 3b10 6fbd 5066 6ebd
000002f0: 3721 9cbc 9b19 e43d f0de 883d 27ff 0abe
00000300: ab8b 2e3d 2abb ebbc a893 f1bd b373 cf3c
00000310: 3547 43bd dee0 3dbc 076d e1bd 3ff7 723d
00000320: fc95 3fbd 6055 dd3c 0e57 033e a9df 953d
00000330: e512 323d d069 c13d ea68 f53d 3967 623d
00000340: 7149 9abd 790c f53d a9eb b33d 8b14 e73c
00000350: 4bc5 b7bd e458 2a3d 0a18 093e 22ec c3bd
00000360: 9f90 cbbb 0ea7 ca3d 5708 903d 3dca 9c3d
00000370: 166e e23d b2f2 8bbd e08f 083d 1371 a7bd
00000380: bc02 5cbd e113 bf3d 4109 0a3e 8f65 63bd
00000390: 8d0f 853d d9a0 aabc 8902 f0bd 192c db3d
000003a0: 0ce0 093e d638 45bd c930 d1bd b1af ccbd
000003b0: da85 693c 9276 f33c e49c 06be 2cd6 57bd
000003c0: e2f1 e2bc 8e5a cbbd 0659 c73d d5d3 5e3d
000003d0: 68ae 0a3e 9ac9 a4bc 1e0d 80bd ae4b c73d
000003e0: 9b1e 5f3d ac32 67bd cd07 89bd 2059 643d
000003f0: a65c 713d 5227 3bbd 0a1b aa3d 4feb c4bc
0.02450381 -0.0060639223 0.024773292 0.030495541 0.027520131 0.08633218 0.04133815 0.065332465
0.08279752 -0.13390821 0.030421866 0.00305559 -0.10517001 0.069338225 -0.034384597 0.08178927
-0.04178461 0.10735169 -0.02145923 0.068566136 -0.12919775 -0.10495413 -0.06447092 -0.011309986
-0.13175352 -0.043046597 -0.027157608 0.07699479 -0.05700158 -0.017566707 0.04074827 0.007651336
0.083784655 0.040558156 0.13594262 -0.068524025 -0.115589224 -0.054488033 0.084566996 0.0062294686
0.09348634 -0.08247229 -0.10132159 -0.04886106 0.11082202 -0.109316304 -0.05073346 -0.13001993
0.03474531 -0.002645374 0.055590786 0.02022964 0.10715071 0.13183275 -0.121290535 0.014482133
0.1317696 0.02145731 0.13303351 0.08487745 0.003606047 -0.07704979 -0.027294936 -0.02129964
-0.11043471 0.12164758 0.055628534 0.101772234 0.03304935 -0.03713244 -0.014586464 -0.03242226
0.12943467 -0.112628885 0.03273479 -0.02572502 -0.08403733 0.10671006 -0.12631923 -0.054513387
-0.12038854 -0.0058549466 0.077034906 0.005744143 -0.0014465502 0.08486792 -0.016765408 -0.10710776
0.061809327 -0.05107949 0.080398776 -0.0020003961 -0.083128974 -0.07561796 0.13070436 -0.085590266
-0.1220812 0.130184 0.108484685 0.03355568 0.0904113 0.042837158 0.0451819 0.046350226
-0.003176804 0.0513097 -0.124065906 -0.12789395 0.017230472 -0.04388228 0.0014602771 0.10006234
-0.12435631 -0.0068113976 -0.089882925 0.011916565 -0.10279774 -0.057465926 -0.10550298 -0.0392583
0.053101823 -0.124498025 -0.018778855 -0.11188456 -0.030877229 0.044360187 0.058387812 -0.03512227
-0.09700307 -0.03128129 -0.020012414 0.066468015 0.034469116 0.07828694 0.1274907 0.055430055
0.09224808 0.14212985 -0.0954582 -0.004107087 -0.070073955 -0.07247243 0.024951177 0.11238945
-0.13357805 0.045507353 0.0739841 0.04033183 -0.059952877 0.018556213 0.042802293 0.0044303746
0.03640899 -0.04795968 0.11405263 0.054647584 0.08176558 -0.07763258 0.05564127 -0.106834285
-0.024656845 -0.07309588 -0.04947239 -0.12561 0.0019056415 0.008439345 0.11438937 0.046408433
-0.11930568 -0.05251178 -0.038980264 0.0010562163 -0.045619294 0.12457275 0.08162784 -0.054530084
-0.016512692 0.12306379 -0.07720247 -0.026759705 0.0172153 -0.06778569 -0.1124144 -0.038907465
0.082070746 0.1322871 -0.058365088 -0.05820304 -0.019058807 0.11137696 0.06683147 -0.13573895
0.042613667 -0.02877577 -0.11795741 0.025323724 -0.04767533 -0.011589257 -0.110071234 0.059317823
-0.046773896 0.027018249 0.12826177 0.073180504 0.04347505 0.0944401 0.119829014 0.055274222
-0.07533539 0.119652696 0.08785183 0.028208038 -0.089731775 0.04158868 0.13388076 -0.09566523
-0.0062123085 0.098951444 0.07032841 0.076557614 0.110561535 -0.068334 0.033340335 -0.08175864
-0.053713545 0.093299635 0.13480093 -0.055516776 0.06497107 -0.020828651 -0.117192335 0.1070177
0.13464373 -0.048149906 -0.10214383 -0.09994448 0.014253104 0.029719625 -0.13145787 -0.052694485
-0.02770323 -0.09929381 0.09733777 0.054401238 0.13543093 -0.020115662 -0.06252502 0.09731232
0.054472547 -0.05644481 -0.06690941 0.05574906 0.058926247 -0.045691796 0.083059385 -0.024037985

movielens_model_1/ranking_model_3/sequential_11/dense_10/MatMul f4 [64, 256]
00000000: d31a 273d e338 ebbd bac9 debd 3295 053e
00000010: caad 9f3d 7d68 bdbd 8fa4 cdbd 9447 0c3d
00000020: e70a 9ebd 2400 ee3d 0b55 d83d 6c92 4e3c
00000030: d0c3 03be 6aac b93d 8c62 4dbd 4c92 debd
00000040: 429f 5fbd 27ce 05be 7006 b4bd 4945 21bd
00000050: 4992 da3d 839c fbbd 3865 f0bd 91f9 c1bc
00000060: d94e aa3b 37cb dfbd 922a 80bd 8b43 e93d
00000070: c9aa f1bd ffbe 883c d40d 843d faff 443c
00000080: 4618 933d 7603 e2bd d951 49bd 7728 c63d
00000090: cb76 a0bd c174 bd3d c071 5dbd e672 f2bc
000000a0: e056 babd 8094 edbc da84 34bd fcf2 b73d
000000b0: cecc abbd be3e ba3d 7591 9a3d f66c e93c
000000c0: 1980 3b3c 8c5e fa3d f896 08be d9df 293d
000000d0: 1fde a73c d87c bfbd 3ed9 003e 9a89 b2bd
000000e0: a7ac 92bd 54c5 023e 5e40 02bd f681 53bd
000000f0: 104e 453d 8755 8fbd 3a70 a6bc 2ed3 143d
00000100: 0802 eebd 9d26 eabd 5abf 4bbd 8bb0 f8bd
00000110: e25e 76bd d26d 963d 14db d0bc 39e1 ed3d
00000120: 5ae7 92bd e8f2 ab3d 8f34 f9bc 0e1a 8e3d
00000130: 0d10 61bd 7000 8bbd 2f11 ed3d 4268 03bc
00000140: 93f7 ae3c 380b 8ebc 99d2 87bd 6537 1b3d
00000150: f634 b23d aa12 143d 3859 22bd c2af 8fbd
00000160: 76e0 4e3d 58ba 863c d7be ce3d 1d84 1abd
00000170: 3e1a e13d 29c0 9abd b80f 88bd ed05 a23c
00000180: 1247 67bc f219 af3d 1a10 bdbd b38e 2abd
00000190: c4c8 8f3d 4e70 7bbd f820 09be 0dce 0dbd
000001a0: 1294 85bd 78b8 b63b 84ff 76bd c032 20bd
000001b0: 8d34 f43c c8ae e73d b718 c63d 5f09 95bd
000001c0: b302 de3c ca1f bf3c 5247 643c 46bb 363d
000001d0: 50e4 8b3d 2416 853d b006 4abd e9a7 1e3c
000001e0: 5ded f43d acfc a3bd e063 d1bd 3bf5 a3bd
000001f0: 033a c4bc 3a29 0abe 4bb6 893c 2d88 863d
00000200: d6de d43d 8a84 cfbd 4bab 91bd 4000 8fbd
00000210: ac24 42bd 2fe4 a73d 7cdf 80bd 6b61 063e
00000220: 5b11 873d aa5b d83d 07e8 f33d 9bc2 fa3d
00000230: 1c7d ca3d cd06 473d 8c5f cebd 4300 f13b
00000240: 8bc0 853d 0de9 d43c adbf f33d 22a3 84bd
00000250: 9109 d3bd 37c2 cc3d 8b21 f63c aaa9 553d
00000260: 9350 fc3d f541 bdbd 65a3 07be 7fc0 b3bd
00000270: c70c a0bd 41e8 ea3c 8628 e9bc dc18 6e3d
00000280: ceae e8bd c5ac b93d 6ccf a23c 2e03 a0bd
00000290: b016 d5ba 9455 e23c 44ab a1bd f620 763d
000002a0: c317 8b3d d59d ccbd 70e8 423d d714 5e3d
000002b0: f094 ab3d ca6f 9b3d 130c b2bd 6f0a 9e3d
000002c0: a7cc 3dbd 7d7e a0bd 1376 083e 06ae aebd
000002d0: fcb0 a73c a88e 823c 2529 e0bd 742e 5bbd
000002e0: 2fa7 f6bd 8b9d 2b3d 0856 65bd 7d57 c93d
000002f0: 397f d83d 838b e7bc d3bb f3bb 116e 8cbd
00000300: 9000 3c3d 7d96 ac3d 3ca1 bdb9 a44c 023e
00000310: b40a 6c3c 619f 74bd a75c d13d 0db5 edbd
00000320: 96b8 d33d 9f64 d8bc 09cf 753d 57e4 aebd
00000330: 1911 c43d 6f8b bebd 1add ddbd 2614 773d
00000340: ebd8 3d3c bb3d 7cbd f9ef b53d bef5 e83d
00000350: 77ee 6dbd 724a db3d e3ad b13d fa07 acbd
00000360: deea 983d 1740 8cbd fe93 c5bd 529a 9abd
00000370: 5907 9f3b c0f3 063e 1658 f3bd 14ca 023e
00000380: 9874 26bd 1b5f 643d 605b 4b3c dcff b43d
00000390: 3323 963d d764 f5bd 6eab d23d b7cf 8bba
000003a0: 94aa 0c3c ca92 0ebd 37e2 063e 982a 8abd
000003b0: 83dc c5bd 56fc 2d3d fb7a cebd a82b 44bd
000003c0: 4688 d5bc 1038 afbd 93ab 91bd c024 b6bd
000003d0: fe28 82bd 8186 05be fd0f d33d 2bc3 d3bc
000003e0: 0032 fd3d 7041 1e3d 805f 063d 80ea 963d
000003f0: 179d fcbd 941b 09be d43d a2bd eac0 893d
0.040797066 -0.1148546 -0.1087832 0.13045195 0.077968195 -0.09248445 -0.10041153 0.03424795
-0.07716923 0.116211206 0.10563096 0.012608152 -0.12867665 0.090660885 -0.05014281 -0.10867748
-0.05459524 -0.13066922 -0.0879029 -0.039372716 0.10672433 -0.122857116 -0.11738056 -0.023678573
0.0051973877 -0.10927432 -0.0625812 0.11389836 -0.11800153 0.016692637 0.0644795 0.01202392
0.07182364 -0.11035816 -0.04915032 0.09675687 -0.07835158 0.09250785 -0.05406356 -0.029595803
-0.09098601 -0.029001474 -0.04407201 0.089818925 -0.08388673 0.090939984 0.07547275 0.02849434
0.011444115 0.12225065 -0.1333884 0.041473243 0.020491658 -0.09349984 0.12582871 -0.08717652
-0.07161837 0.12770587 -0.031799667 -0.051637612 0.04817015 -0.06998735 -0.020317186 0.03633421
-0.11621481 -0.11433146 -0.049743034 -0.12143048 -0.06014908 0.07345165 -0.02549509 0.116152234
-0.07173033 0.0839594 -0.03042057 0.06938563 -0.054946948 -0.06787193 0.11575543 -0.0080204625
0.021358287 -0.017339334 -0.06631965 0.037894625 0.08701508 0.036150612 -0.039635867 -0.07015945
0.05050703 0.016446277 0.100949936 -0.03772365 0.109913334 -0.07556183 -0.06643623 0.019778216
-0.014116066 0.085498706 -0.09231587 -0.041639995 0.07020715 -0.0613864 -0.13391483 -0.034620333
-0.06522383 0.0055761896 -0.060302272 -0.0391109 0.029810214 0.11312634 0.09672683 -0.07277178
0.027100896 0.023330588 0.01393302 0.04461219 0.068306565 0.064983636 -0.049322784 0.009683588
0.11959336 -0.08007178 -0.10224128 -0.080057584 -0.023953443 -0.13492289 0.016810557 0.06568942
0.10394065 -0.10132702 -0.0711275 -0.069824696 -0.047398254 0.081978194 -0.06292626 0.131231
0.06595107 0.105643585 0.1190949 0.12244149 0.09887144 0.04859047 -0.10076818 0.0073547675
0.06530865 0.025990034 0.11901794 -0.064764276 -0.10304559 0.09997981 0.030045291 0.052163757
0.12320056 -0.09241096 -0.13245924 -0.0877695 -0.07814937 0.0286752 -0.028461706 0.058129176
-0.11361466 0.09066156 0.019874297 -0.078131065 -0.0016257372 0.027628697 -0.078939945 0.060090028
0.067916416 -0.099910416 0.04758495 0.054219093 0.08378017 0.075896814 -0.08693709 0.07716834
-0.04633775 -0.07836626 0.13326292 -0.08529286 0.020470135 0.015937164 -0.10945348 -0.053511098
-0.120436065 0.04189829 -0.05599025 0.0983114 0.10571141 -0.028264767 -0.007438162 -0.06856931
0.045898974 0.08427141 -0.00036169018 0.12724549 0.014406849 -0.059722308 0.1022275 -0.11606798
0.10337941 -0.026415167 0.060011897 -0.08539646 0.095735736 -0.093039386 -0.108331874 0.06032195
0.011587362 -0.06158231 0.08883662 0.113749966 -0.058088746 0.10707559 0.086757444 -0.08399959
0.07466672 -0.06848162 -0.09647368 -0.075489655 0.004853171 0.13178921 -0.118820354 0.12772399
-0.040638536 0.055754762 0.012411922 0.08837864 0.073309325 -0.11982124 0.10286604 -0.0010666762
0.008585591 -0.034807958 0.13172232 -0.06746405 -0.096612 0.042476974 -0.100820504 -0.047893196
-0.026065957 -0.08555615 -0.07112803 -0.08893728 -0.06355475 -0.1303959 0.10305784 -0.0258499
0.12363052 0.038636625 0.03280592 0.07368946 -0.1233465 -0.13389426 -0.07921949 0.067262486

movielens_model_1/ranking_model_3/sequential_11/dense_11/MatMul f4 [1, 64]
00000000: e160 13be ca2d 113e b1b2 18be c8ca aabd
00000010: f806 6e3e 8162 4a3e 92b6 51be 004b 67be
00000020: 60cc 2e3e eb9e abbd 0b52 6d3e 1a5a 283e
00000030: 275d a63e 1a42 19be c389 b6bc 2825 6d3e
00000040: 3239 24be 1694 c73d ceeb 09be 9376 2abe
00000050: 5c38 b53e 0a78 64be 24f5 84be 3049 923e
00000060: a39f 81be 5b59 403e b46b 4ebe d4d2 55be
00000070: a5af c23c 9e9e b13b 4248 59be 1b2a b73e
00000080: 76e0 4abe 631e c13e 8c6c 043d 0b4c 5d3e
00000090: 1243 e6bd e33e 883e 0d46 2bbd f9a1 a1bd
000000a0: 76eb 30be 6304 e03c d374 7abe e1a4 0fbe
000000b0: 11cd 18bc 2943 8d3e 9a0f 103e 510b 873e
000000c0: b020 8d3e 0a72 1bbe 008a 4e3a 1a94 67be
000000d0: ad2f cd3c c1e0 b63e f072 11be 5cc1 ce3e
000000e0: ea15 8cbe 5b90 0fbe ebb7 aa3e 120c 8c3e
000000f0: 62c9 43bd 77d6 873e cf67 22be 4067 67be
-0.14392425 0.14177623 -0.14911915 -0.08339459 0.23244846 0.19764139 -0.20479801 -0.22587204
0.1707015 -0.083799206 0.23175828 0.16440621 0.32492945 -0.14966622 -0.022282487 0.23158705
-0.16037443 0.09745042 -0.13468859 -0.16646795 0.3539456 -0.22311416 -0.25968277 0.28571463
-0.25317106 0.18784086 -0.20158273 -0.20881206 0.023765394 0.00542052 -0.2121897 0.3577431
-0.19812188 0.37718496 0.03233008 0.2161104 -0.112432614 0.2661048 -0.041814853 -0.07892222
-0.17277321 0.027345842 -0.24458627 -0.1402774 -0.009326235 0.27590302 0.14068452 0.2637582
0.27564 -0.15180221 0.000787884 -0.2261509 0.025047148 0.3571835 -0.14204001 0.40381896
-0.2736047 -0.14019911 0.33343443 0.2735296 -0.047799475 0.2653081 -0.15859912 -0.2259798
